…
        globals()[f"{key}1"] = np.dstack((data[:, :, 0], data[:, :, 4]))
        globals()[f"{key}2"] = np.dstack((data[:, :, 1], data[:, :, 3]))
        globals()[f"{key}3"] = np.dstack((data[:, :, 2],))
        # Uncomment and modify the line below if you need the fourth set
        # globals()[f"{key}4"] = np.dstack((data[:, :, 6], data[:, :, 8]))


Model: "functional_8"
┏━━━━━━━━━━━━━━━━━━━━━┳━━━━━━━━━━━━━━━━━━━┳━━━━━━━━━━━━┳━━━━━━━━━━━━━━━━━━━┓
┃ Layer (type)        ┃ Output Shape      ┃    Param # ┃ Connected to      ┃
┡━━━━━━━━━━━━━━━━━━━━━╇━━━━━━━━━━━━━━━━━━━╇━━━━━━━━━━━━╇━━━━━━━━━━━━━━━━━━━┩
│ input1 (InputLayer) │ (None, 1800, 2)   │          0 │ -                 │
├─────────────────────┼───────────────────┼────────────┼───────────────────┤
│ input2 (InputLayer) │ (None, 1800, 2)   │          0 │ -                 │
├─────────────────────┼───────────────────┼────────────┼───────────────────┤
│ input3 (InputLayer) │ (None, 1800, 1)   │          0 │ -                 │
├─────────────────────┼───────────────────┼────────────┼───────────────────┤
│ conv1d_1_1 (Conv1D) │ (None, 180, 64)   │      5,184 │ input1[0][0]      │
├─────────────────────┼───────────────────┼────────────┼───────────────────┤
│ conv1d_2_1 (Conv1D) │ (None, 180, 64)   │      5,184 │ input2[0][0]      │
├─────────────────────┼───────────────────┼────────────┼───────────────────┤
│ conv1d_3_1 (Conv1D) │ (None, 180, 64)   │      2,624 │ input3[0][0]      │
├─────────────────────┼───────────────────┼────────────┼───────────────────┤
│ conv1d_1_2 (Conv1D) │ (None, 87, 128)   │     65,664 │ conv1d_1_1[0][0]  │
├─────────────────────┼───────────────────┼────────────┼───────────────────┤
│ conv1d_2_2 (Conv1D) │ (None, 87, 128)   │     65,664 │ conv1d_2_1[0][0]  │
├─────────────────────┼───────────────────┼────────────┼───────────────────┤
│ conv1d_3_2 (Conv1D) │ (None, 87, 128)   │     65,664 │ conv1d_3_1[0][0]  │
├─────────────────────┼───────────────────┼────────────┼───────────────────┤
│ dropout_1_1         │ (None, 87, 128)   │          0 │ conv1d_1_2[0][0]  │
│ (Dropout)           │                   │            │                   │
├─────────────────────┼───────────────────┼────────────┼───────────────────┤
│ dropout_2_1         │ (None, 87, 128)   │          0 │ conv1d_2_2[0][0]  │
│ (Dropout)           │                   │            │                   │
├─────────────────────┼───────────────────┼────────────┼───────────────────┤
│ dropout_3_1         │ (None, 87, 128)   │          0 │ conv1d_3_2[0][0]  │
│ (Dropout)           │                   │            │                   │
├─────────────────────┼───────────────────┼────────────┼───────────────────┤
│ conv1d_1_3 (Conv1D) │ (None, 86, 256)   │     65,792 │ dropout_1_1[0][0] │
├─────────────────────┼───────────────────┼────────────┼───────────────────┤
│ conv1d_2_3 (Conv1D) │ (None, 86, 256)   │     65,792 │ dropout_2_1[0][0] │
├─────────────────────┼───────────────────┼────────────┼───────────────────┤
│ conv1d_3_3 (Conv1D) │ (None, 86, 256)   │     65,792 │ dropout_3_1[0][0] │
├─────────────────────┼───────────────────┼────────────┼───────────────────┤
│ dropout_1_2         │ (None, 86, 256)   │          0 │ conv1d_1_3[0][0]  │
│ (Dropout)           │                   │            │                   │
├─────────────────────┼───────────────────┼────────────┼───────────────────┤
│ dropout_2_2         │ (None, 86, 256)   │          0 │ conv1d_2_3[0][0]  │
│ (Dropout)           │                   │            │                   │
├─────────────────────┼───────────────────┼────────────┼───────────────────┤
│ dropout_3_2         │ (None, 86, 256)   │          0 │ conv1d_3_3[0][0]  │
│ (Dropout)           │                   │            │                   │
├─────────────────────┼───────────────────┼────────────┼───────────────────┤
│ gap1d_1_1           │ (None, 256)       │          0 │ dropout_1_2[0][0] │
│ (GlobalMaxPooling1… │                   │            │                   │
├─────────────────────┼───────────────────┼────────────┼───────────────────┤
│ gap1d_2_1           │ (None, 256)       │          0 │ dropout_2_2[0][0] │
│ (GlobalMaxPooling1… │                   │            │                   │
├─────────────────────┼───────────────────┼────────────┼───────────────────┤
│ gap1d_3_1           │ (None, 256)       │          0 │ dropout_3_2[0][0] │
│ (GlobalMaxPooling1… │                   │            │                   │
├─────────────────────┼───────────────────┼────────────┼───────────────────┤
│ concatenate_1       │ (None, 768)       │          0 │ gap1d_1_1[0][0],  │
│ (Concatenate)       │                   │            │ gap1d_2_1[0][0],  │
│                     │                   │            │ gap1d_3_1[0][0]   │
├─────────────────────┼───────────────────┼────────────┼───────────────────┤
│ dense_1 (Dense)     │ (None, 64)        │     49,216 │ concatenate_1[0]… │
├─────────────────────┼───────────────────┼────────────┼───────────────────┤
│ dense_2 (Dense)     │ (None, 16)        │      1,040 │ dense_1[0][0]     │
├─────────────────────┼───────────────────┼────────────┼───────────────────┤
│ output (Dense)      │ (None, 3)         │         51 │ dense_2[0][0]     │
└─────────────────────┴───────────────────┴────────────┴───────────────────┘
 Total params: 1,373,003 (5.24 MB)
 Trainable params: 457,667 (1.75 MB)
 Non-trainable params: 0 (0.00 B)
 Optimizer params: 915,336 (3.49 MB)

Model Configuration:
Optimizer: <keras.src.optimizers.adam.Adam object at 0x7f4c785d3fa0>
Loss Function: sparse_categorical_crossentropy
Learning Rate: <KerasVariable shape=(), dtype=float32, path=adam/learning_rate>
…
