…
def assign_and_deploy_variables(data_dict):
    for key, data in data_dict.items():
        globals()[f"{key}1"] = data[:, :, 1]
        globals()[f"{key}2"] = data[:, :, 5]
        globals()[f"{key}3"] = np.dstack((data[:, :, 2], data[:, :, 4]))
        globals()[f"{key}4"] = np.dstack((data[:, :, 6], data[:, :, 8]))


Model: "functional_15"
┏━━━━━━━━━━━━━━━━━━━━━┳━━━━━━━━━━━━━━━━━━━┳━━━━━━━━━━━━┳━━━━━━━━━━━━━━━━━━━┓
┃ Layer (type)        ┃ Output Shape      ┃    Param # ┃ Connected to      ┃
┡━━━━━━━━━━━━━━━━━━━━━╇━━━━━━━━━━━━━━━━━━━╇━━━━━━━━━━━━╇━━━━━━━━━━━━━━━━━━━┩
│ input1 (InputLayer) │ (None, 1800, 1)   │          0 │ -                 │
├─────────────────────┼───────────────────┼────────────┼───────────────────┤
│ input2 (InputLayer) │ (None, 1800, 1)   │          0 │ -                 │
├─────────────────────┼───────────────────┼────────────┼───────────────────┤
│ input3 (InputLayer) │ (None, 1800, 2)   │          0 │ -                 │
├─────────────────────┼───────────────────┼────────────┼───────────────────┤
│ input4 (InputLayer) │ (None, 1800, 2)   │          0 │ -                 │
├─────────────────────┼───────────────────┼────────────┼───────────────────┤
│ conv1d_1_1 (Conv1D) │ (None, 900, 128)  │      1,408 │ input1[0][0]      │
├─────────────────────┼───────────────────┼────────────┼───────────────────┤
│ conv1d_2_1 (Conv1D) │ (None, 900, 128)  │      1,408 │ input2[0][0]      │
├─────────────────────┼───────────────────┼────────────┼───────────────────┤
│ conv1d_3_1 (Conv1D) │ (None, 900, 128)  │      2,688 │ input3[0][0]      │
├─────────────────────┼───────────────────┼────────────┼───────────────────┤
│ conv1d_4_1 (Conv1D) │ (None, 900, 128)  │      2,688 │ input4[0][0]      │
├─────────────────────┼───────────────────┼────────────┼───────────────────┤
│ max_pooling1d_8     │ (None, 450, 128)  │          0 │ conv1d_1_1[0][0]  │
│ (MaxPooling1D)      │                   │            │                   │
├─────────────────────┼───────────────────┼────────────┼───────────────────┤
│ max_pooling1d_9     │ (None, 450, 128)  │          0 │ conv1d_2_1[0][0]  │
│ (MaxPooling1D)      │                   │            │                   │
├─────────────────────┼───────────────────┼────────────┼───────────────────┤
│ max_pooling1d_10    │ (None, 450, 128)  │          0 │ conv1d_3_1[0][0]  │
│ (MaxPooling1D)      │                   │            │                   │
├─────────────────────┼───────────────────┼────────────┼───────────────────┤
│ max_pooling1d_11    │ (None, 450, 128)  │          0 │ conv1d_4_1[0][0]  │
│ (MaxPooling1D)      │                   │            │                   │
├─────────────────────┼───────────────────┼────────────┼───────────────────┤
│ conv1d_1_2 (Conv1D) │ (None, 224, 256)  │    131,328 │ max_pooling1d_8[… │
├─────────────────────┼───────────────────┼────────────┼───────────────────┤
│ conv1d_2_2 (Conv1D) │ (None, 224, 256)  │    131,328 │ max_pooling1d_9[… │
├─────────────────────┼───────────────────┼────────────┼───────────────────┤
│ conv1d_3_2 (Conv1D) │ (None, 224, 256)  │    131,328 │ max_pooling1d_10… │
├─────────────────────┼───────────────────┼────────────┼───────────────────┤
│ conv1d_4_2 (Conv1D) │ (None, 224, 256)  │    131,328 │ max_pooling1d_11… │
├─────────────────────┼───────────────────┼────────────┼───────────────────┤
│ conv1d_1_3 (Conv1D) │ (None, 223, 512)  │    262,656 │ conv1d_1_2[0][0]  │
├─────────────────────┼───────────────────┼────────────┼───────────────────┤
│ conv1d_2_3 (Conv1D) │ (None, 223, 512)  │    262,656 │ conv1d_2_2[0][0]  │
├─────────────────────┼───────────────────┼────────────┼───────────────────┤
│ conv1d_3_3 (Conv1D) │ (None, 223, 512)  │    262,656 │ conv1d_3_2[0][0]  │
├─────────────────────┼───────────────────┼────────────┼───────────────────┤
│ conv1d_4_3 (Conv1D) │ (None, 223, 512)  │    262,656 │ conv1d_4_2[0][0]  │
├─────────────────────┼───────────────────┼────────────┼───────────────────┤
│ gap1d_1_1           │ (None, 512)       │          0 │ conv1d_1_3[0][0]  │
│ (GlobalMaxPooling1… │                   │            │                   │
├─────────────────────┼───────────────────┼────────────┼───────────────────┤
│ gap1d_2_1           │ (None, 512)       │          0 │ conv1d_2_3[0][0]  │
│ (GlobalMaxPooling1… │                   │            │                   │
├─────────────────────┼───────────────────┼────────────┼───────────────────┤
│ gap1d_3_1           │ (None, 512)       │          0 │ conv1d_3_3[0][0]  │
│ (GlobalMaxPooling1… │                   │            │                   │
├─────────────────────┼───────────────────┼────────────┼───────────────────┤
│ gap1d_4_1           │ (None, 512)       │          0 │ conv1d_4_3[0][0]  │
│ (GlobalMaxPooling1… │                   │            │                   │
├─────────────────────┼───────────────────┼────────────┼───────────────────┤
│ concatenate_1       │ (None, 2048)      │          0 │ gap1d_1_1[0][0],  │
│ (Concatenate)       │                   │            │ gap1d_2_1[0][0],  │
│                     │                   │            │ gap1d_3_1[0][0],  │
│                     │                   │            │ gap1d_4_1[0][0]   │
├─────────────────────┼───────────────────┼────────────┼───────────────────┤
│ dense_1 (Dense)     │ (None, 64)        │    131,136 │ concatenate_1[0]… │
├─────────────────────┼───────────────────┼────────────┼───────────────────┤
│ dense_2 (Dense)     │ (None, 16)        │      1,040 │ dense_1[0][0]     │
├─────────────────────┼───────────────────┼────────────┼───────────────────┤
│ output (Dense)      │ (None, 4)         │         68 │ dense_2[0][0]     │
└─────────────────────┴───────────────────┴────────────┴───────────────────┘
 Total params: 5,149,118 (19.64 MB)
 Trainable params: 1,716,372 (6.55 MB)
 Non-trainable params: 0 (0.00 B)
 Optimizer params: 3,432,746 (13.09 MB)

Model Configuration:
Optimizer: <keras.src.optimizers.adam.Adam object at 0x7f4a5070bd30>
Loss Function: sparse_categorical_crossentropy
Learning Rate: <KerasVariable shape=(), dtype=float32, path=adam/learning_rate>
…
