…
        globals()[f"{key}1"] = np.dstack((data[:, :, 0], data[:, :, 2]))
        globals()[f"{key}2"] = np.dstack((data[:, :, 3],))
        globals()[f"{key}3"] = np.dstack((data[:, :, 2], data[:, :, 0]))
        # Uncomment and modify the line below if you need the fourth set
        # globals()[f"{key}4"] = np.dstack((data[:, :, 6], data[:, :, 8]))


Model: "functional_9"
┏━━━━━━━━━━━━━━━━━━━━━┳━━━━━━━━━━━━━━━━━━━┳━━━━━━━━━━━━┳━━━━━━━━━━━━━━━━━━━┓
┃ Layer (type)        ┃ Output Shape      ┃    Param # ┃ Connected to      ┃
┡━━━━━━━━━━━━━━━━━━━━━╇━━━━━━━━━━━━━━━━━━━╇━━━━━━━━━━━━╇━━━━━━━━━━━━━━━━━━━┩
│ input1 (InputLayer) │ (None, 800, 2)    │          0 │ -                 │
├─────────────────────┼───────────────────┼────────────┼───────────────────┤
│ input2 (InputLayer) │ (None, 800, 1)    │          0 │ -                 │
├─────────────────────┼───────────────────┼────────────┼───────────────────┤
│ conv1d_1_1 (Conv1D) │ (None, 96, 128)   │     10,368 │ input1[0][0]      │
├─────────────────────┼───────────────────┼────────────┼───────────────────┤
│ conv1d_2_1 (Conv1D) │ (None, 799, 128)  │        384 │ input2[0][0]      │
├─────────────────────┼───────────────────┼────────────┼───────────────────┤
│ maxpool1d_1_1       │ (None, 48, 128)   │          0 │ conv1d_1_1[0][0]  │
│ (MaxPooling1D)      │                   │            │                   │
├─────────────────────┼───────────────────┼────────────┼───────────────────┤
│ conv1d_2_2 (Conv1D) │ (None, 396, 64)   │     65,600 │ conv1d_2_1[0][0]  │
├─────────────────────┼───────────────────┼────────────┼───────────────────┤
│ conv1d_1_2 (Conv1D) │ (None, 15, 128)   │    327,808 │ maxpool1d_1_1[0]… │
├─────────────────────┼───────────────────┼────────────┼───────────────────┤
│ conv1d_2_3 (Conv1D) │ (None, 393, 128)  │     32,896 │ conv1d_2_2[0][0]  │
├─────────────────────┼───────────────────┼────────────┼───────────────────┤
│ input3 (InputLayer) │ (None, 800, 2)    │          0 │ -                 │
├─────────────────────┼───────────────────┼────────────┼───────────────────┤
│ conv1d_1_3 (Conv1D) │ (None, 12, 256)   │    131,328 │ conv1d_1_2[0][0]  │
├─────────────────────┼───────────────────┼────────────┼───────────────────┤
│ conv1d_2_4 (Conv1D) │ (None, 392, 64)   │     16,448 │ conv1d_2_3[0][0]  │
├─────────────────────┼───────────────────┼────────────┼───────────────────┤
│ conv1d_3_1 (Conv1D) │ (None, 77, 64)    │      5,184 │ input3[0][0]      │
├─────────────────────┼───────────────────┼────────────┼───────────────────┤
│ globalmaxpool1d_1_1 │ (None, 256)       │          0 │ conv1d_1_3[0][0]  │
│ (GlobalMaxPooling1… │                   │            │                   │
├─────────────────────┼───────────────────┼────────────┼───────────────────┤
│ globalmaxpool1d_2_1 │ (None, 64)        │          0 │ conv1d_2_4[0][0]  │
│ (GlobalMaxPooling1… │                   │            │                   │
├─────────────────────┼───────────────────┼────────────┼───────────────────┤
│ conv1d_3_2 (Conv1D) │ (None, 68, 64)    │     41,024 │ conv1d_3_1[0][0]  │
├─────────────────────┼───────────────────┼────────────┼───────────────────┤
│ dropout_1_1         │ (None, 256)       │          0 │ globalmaxpool1d_… │
│ (Dropout)           │                   │            │                   │
├─────────────────────┼───────────────────┼────────────┼───────────────────┤
│ dropout_2_1         │ (None, 64)        │          0 │ globalmaxpool1d_… │
│ (Dropout)           │                   │            │                   │
├─────────────────────┼───────────────────┼────────────┼───────────────────┤
│ globalmaxpool1d_3_1 │ (None, 64)        │          0 │ conv1d_3_2[0][0]  │
│ (GlobalMaxPooling1… │                   │            │                   │
├─────────────────────┼───────────────────┼────────────┼───────────────────┤
│ dense_1_2 (Dense)   │ (None, 64)        │     16,448 │ dropout_1_1[0][0] │
├─────────────────────┼───────────────────┼────────────┼───────────────────┤
│ dense_2_1 (Dense)   │ (None, 64)        │      4,160 │ dropout_2_1[0][0] │
├─────────────────────┼───────────────────┼────────────┼───────────────────┤
│ dense_3_1 (Dense)   │ (None, 64)        │      4,160 │ globalmaxpool1d_… │
├─────────────────────┼───────────────────┼────────────┼───────────────────┤
│ concatenate_1       │ (None, 192)       │          0 │ dense_1_2[0][0],  │
│ (Concatenate)       │                   │            │ dense_2_1[0][0],  │
│                     │                   │            │ dense_3_1[0][0]   │
├─────────────────────┼───────────────────┼────────────┼───────────────────┤
│ dense_merged_1      │ (None, 64)        │     12,352 │ concatenate_1[0]… │
│ (Dense)             │                   │            │                   │
├─────────────────────┼───────────────────┼────────────┼───────────────────┤
│ output (Dense)      │ (None, 1)         │         65 │ dense_merged_1[0… │
└─────────────────────┴───────────────────┴────────────┴───────────────────┘
 Total params: 2,004,677 (7.65 MB)
 Trainable params: 668,225 (2.55 MB)
 Non-trainable params: 0 (0.00 B)
 Optimizer params: 1,336,452 (5.10 MB)

Model Configuration:
Optimizer: <keras.src.optimizers.adam.Adam object at 0x7fcaf072bca0>
Loss Function: binary_crossentropy
Learning Rate: <KerasVariable shape=(), dtype=float32, path=adam/learning_rate>
…
