…
Assign and Deploy Variables Function:
def assign_and_deploy_variables(data_dict):
    for key, data in data_dict.items():
        globals()[f"{key}1"] = data[:, :, 0]
        globals()[f"{key}2"] = data[:, :, 2]
        globals()[f"{key}3"] = np.dstack((data[:, :, 0], data[:, :, 4]))
        globals()[f"{key}4"] = np.dstack((data[:, :, 6], data[:, :, 8]))


Model: "functional_9"
┏━━━━━━━━━━━━━━━━━━━━━┳━━━━━━━━━━━━━━━━━━━┳━━━━━━━━━━━━┳━━━━━━━━━━━━━━━━━━━┓
┃ Layer (type)        ┃ Output Shape      ┃    Param # ┃ Connected to      ┃
┡━━━━━━━━━━━━━━━━━━━━━╇━━━━━━━━━━━━━━━━━━━╇━━━━━━━━━━━━╇━━━━━━━━━━━━━━━━━━━┩
│ input1 (InputLayer) │ (None, 1800, 1)   │          0 │ -                 │
├─────────────────────┼───────────────────┼────────────┼───────────────────┤
│ input2 (InputLayer) │ (None, 1800, 1)   │          0 │ -                 │
├─────────────────────┼───────────────────┼────────────┼───────────────────┤
│ input3 (InputLayer) │ (None, 1800, 2)   │          0 │ -                 │
├─────────────────────┼───────────────────┼────────────┼───────────────────┤
│ input4 (InputLayer) │ (None, 1800, 2)   │          0 │ -                 │
├─────────────────────┼───────────────────┼────────────┼───────────────────┤
│ conv1d_1_1 (Conv1D) │ (None, 90, 128)   │      5,248 │ input1[0][0]      │
├─────────────────────┼───────────────────┼────────────┼───────────────────┤
│ conv1d_2_1 (Conv1D) │ (None, 90, 128)   │      5,248 │ input2[0][0]      │
├─────────────────────┼───────────────────┼────────────┼───────────────────┤
│ conv1d_3_1 (Conv1D) │ (None, 90, 128)   │     10,368 │ input3[0][0]      │
├─────────────────────┼───────────────────┼────────────┼───────────────────┤
│ conv1d_4_1 (Conv1D) │ (None, 90, 128)   │     10,368 │ input4[0][0]      │
├─────────────────────┼───────────────────┼────────────┼───────────────────┤
│ maxpool1d_1_1       │ (None, 45, 128)   │          0 │ conv1d_1_1[0][0]  │
│ (MaxPooling1D)      │                   │            │                   │
├─────────────────────┼───────────────────┼────────────┼───────────────────┤
│ maxpool1d_2_1       │ (None, 45, 128)   │          0 │ conv1d_2_1[0][0]  │
│ (MaxPooling1D)      │                   │            │                   │
├─────────────────────┼───────────────────┼────────────┼───────────────────┤
│ maxpool1d_3_1       │ (None, 45, 128)   │          0 │ conv1d_3_1[0][0]  │
│ (MaxPooling1D)      │                   │            │                   │
├─────────────────────┼───────────────────┼────────────┼───────────────────┤
│ maxpool1d_4_1       │ (None, 45, 128)   │          0 │ conv1d_4_1[0][0]  │
│ (MaxPooling1D)      │                   │            │                   │
├─────────────────────┼───────────────────┼────────────┼───────────────────┤
│ conv1d_1_2 (Conv1D) │ (None, 10, 256)   │    262,400 │ maxpool1d_1_1[0]… │
├─────────────────────┼───────────────────┼────────────┼───────────────────┤
│ conv1d_2_2 (Conv1D) │ (None, 10, 256)   │    262,400 │ maxpool1d_2_1[0]… │
├─────────────────────┼───────────────────┼────────────┼───────────────────┤
│ conv1d_3_2 (Conv1D) │ (None, 10, 256)   │    262,400 │ maxpool1d_3_1[0]… │
├─────────────────────┼───────────────────┼────────────┼───────────────────┤
│ conv1d_4_2 (Conv1D) │ (None, 10, 256)   │    262,400 │ maxpool1d_4_1[0]… │
├─────────────────────┼───────────────────┼────────────┼───────────────────┤
│ dropout_1_1         │ (None, 10, 256)   │          0 │ conv1d_1_2[0][0]  │
│ (Dropout)           │                   │            │                   │
├─────────────────────┼───────────────────┼────────────┼───────────────────┤
│ dropout_2_1         │ (None, 10, 256)   │          0 │ conv1d_2_2[0][0]  │
│ (Dropout)           │                   │            │                   │
├─────────────────────┼───────────────────┼────────────┼───────────────────┤
│ dropout_3_1         │ (None, 10, 256)   │          0 │ conv1d_3_2[0][0]  │
│ (Dropout)           │                   │            │                   │
├─────────────────────┼───────────────────┼────────────┼───────────────────┤
│ dropout_4_1         │ (None, 10, 256)   │          0 │ conv1d_4_2[0][0]  │
│ (Dropout)           │                   │            │                   │
├─────────────────────┼───────────────────┼────────────┼───────────────────┤
│ conv1d_1_3 (Conv1D) │ (None, 9, 256)    │    131,328 │ dropout_1_1[0][0] │
├─────────────────────┼───────────────────┼────────────┼───────────────────┤
│ conv1d_2_3 (Conv1D) │ (None, 9, 64)     │     32,832 │ dropout_2_1[0][0] │
├─────────────────────┼───────────────────┼────────────┼───────────────────┤
│ conv1d_3_3 (Conv1D) │ (None, 9, 256)    │    131,328 │ dropout_3_1[0][0] │
├─────────────────────┼───────────────────┼────────────┼───────────────────┤
│ conv1d_4_3 (Conv1D) │ (None, 9, 64)     │     32,832 │ dropout_4_1[0][0] │
├─────────────────────┼───────────────────┼────────────┼───────────────────┤
│ gap1d_1_1           │ (None, 256)       │          0 │ conv1d_1_3[0][0]  │
│ (GlobalMaxPooling1… │                   │            │                   │
├─────────────────────┼───────────────────┼────────────┼───────────────────┤
│ gap1d_2_1           │ (None, 64)        │          0 │ conv1d_2_3[0][0]  │
│ (GlobalMaxPooling1… │                   │            │                   │
├─────────────────────┼───────────────────┼────────────┼───────────────────┤
│ gap1d_3_1           │ (None, 256)       │          0 │ conv1d_3_3[0][0]  │
│ (GlobalMaxPooling1… │                   │            │                   │
├─────────────────────┼───────────────────┼────────────┼───────────────────┤
│ gap1d_4_1           │ (None, 64)        │          0 │ conv1d_4_3[0][0]  │
│ (GlobalMaxPooling1… │                   │            │                   │
├─────────────────────┼───────────────────┼────────────┼───────────────────┤
│ concatenate_1       │ (None, 640)       │          0 │ gap1d_1_1[0][0],  │
│ (Concatenate)       │                   │            │ gap1d_2_1[0][0],  │
│                     │                   │            │ gap1d_3_1[0][0],  │
│                     │                   │            │ gap1d_4_1[0][0]   │
├─────────────────────┼───────────────────┼────────────┼───────────────────┤
│ dense_1 (Dense)     │ (None, 64)        │     41,024 │ concatenate_1[0]… │
├─────────────────────┼───────────────────┼────────────┼───────────────────┤
│ output (Dense)      │ (None, 3)         │        195 │ dense_1[0][0]     │
└─────────────────────┴───────────────────┴────────────┴───────────────────┘
 Total params: 4,351,115 (16.60 MB)
 Trainable params: 1,450,371 (5.53 MB)
 Non-trainable params: 0 (0.00 B)
 Optimizer params: 2,900,744 (11.07 MB)

Model Configuration:
Optimizer: <keras.src.optimizers.adam.Adam object at 0x7f1f74152f20>
Loss Function: sparse_categorical_crossentropy
Learning Rate: <KerasVariable shape=(), dtype=float32, path=adam/learning_rate>
…
