…
        globals()[f"{key}1"] = np.dstack((data[:, :, 0], data[:, :, 2]))
        globals()[f"{key}2"] = np.dstack((data[:, :, 0], data[:, :, 2]))
        globals()[f"{key}3"] = np.dstack((data[:, :, 6], data[:, :, 8]))
        # Uncomment and modify the line below if you need the fourth set
        # globals()[f"{key}4"] = np.dstack((data[:, :, 6], data[:, :, 8]))


Model: "functional_4"
┏━━━━━━━━━━━━━━━━━━━━━┳━━━━━━━━━━━━━━━━━━━┳━━━━━━━━━━━━┳━━━━━━━━━━━━━━━━━━━┓
┃ Layer (type)        ┃ Output Shape      ┃    Param # ┃ Connected to      ┃
┡━━━━━━━━━━━━━━━━━━━━━╇━━━━━━━━━━━━━━━━━━━╇━━━━━━━━━━━━╇━━━━━━━━━━━━━━━━━━━┩
│ input1 (InputLayer) │ (None, 800, 2)    │          0 │ -                 │
├─────────────────────┼───────────────────┼────────────┼───────────────────┤
│ input2 (InputLayer) │ (None, 800, 2)    │          0 │ -                 │
├─────────────────────┼───────────────────┼────────────┼───────────────────┤
│ input3 (InputLayer) │ (None, 800, 2)    │          0 │ -                 │
├─────────────────────┼───────────────────┼────────────┼───────────────────┤
│ conv1d_1_0 (Conv1D) │ (None, 80, 128)   │     25,728 │ input1[0][0]      │
├─────────────────────┼───────────────────┼────────────┼───────────────────┤
│ conv1d_2_0 (Conv1D) │ (None, 80, 64)    │     12,864 │ input2[0][0]      │
├─────────────────────┼───────────────────┼────────────┼───────────────────┤
│ conv1d_3_0 (Conv1D) │ (None, 80, 64)    │     12,864 │ input3[0][0]      │
├─────────────────────┼───────────────────┼────────────┼───────────────────┤
│ conv1d_1_1 (Conv1D) │ (None, 19, 128)   │    131,200 │ conv1d_1_0[0][0]  │
├─────────────────────┼───────────────────┼────────────┼───────────────────┤
│ conv1d_2_1 (Conv1D) │ (None, 19, 128)   │     65,664 │ conv1d_2_0[0][0]  │
├─────────────────────┼───────────────────┼────────────┼───────────────────┤
│ conv1d_3_1 (Conv1D) │ (None, 19, 128)   │     65,664 │ conv1d_3_0[0][0]  │
├─────────────────────┼───────────────────┼────────────┼───────────────────┤
│ conv1d_1_2 (Conv1D) │ (None, 6, 256)    │    262,400 │ conv1d_1_1[0][0]  │
├─────────────────────┼───────────────────┼────────────┼───────────────────┤
│ conv1d_2_2 (Conv1D) │ (None, 6, 128)    │    131,200 │ conv1d_2_1[0][0]  │
├─────────────────────┼───────────────────┼────────────┼───────────────────┤
│ conv1d_3_2 (Conv1D) │ (None, 6, 128)    │    131,200 │ conv1d_3_1[0][0]  │
├─────────────────────┼───────────────────┼────────────┼───────────────────┤
│ dropout_1_1         │ (None, 6, 256)    │          0 │ conv1d_1_2[0][0]  │
│ (Dropout)           │                   │            │                   │
├─────────────────────┼───────────────────┼────────────┼───────────────────┤
│ dropout_2_1         │ (None, 6, 128)    │          0 │ conv1d_2_2[0][0]  │
│ (Dropout)           │                   │            │                   │
├─────────────────────┼───────────────────┼────────────┼───────────────────┤
│ dropout_3_1         │ (None, 6, 128)    │          0 │ conv1d_3_2[0][0]  │
│ (Dropout)           │                   │            │                   │
├─────────────────────┼───────────────────┼────────────┼───────────────────┤
│ conv1d_1_3 (Conv1D) │ (None, 5, 512)    │    262,656 │ dropout_1_1[0][0] │
├─────────────────────┼───────────────────┼────────────┼───────────────────┤
│ conv1d_2_3 (Conv1D) │ (None, 5, 128)    │     32,896 │ dropout_2_1[0][0] │
├─────────────────────┼───────────────────┼────────────┼───────────────────┤
│ conv1d_3_3 (Conv1D) │ (None, 5, 128)    │     32,896 │ dropout_3_1[0][0] │
├─────────────────────┼───────────────────┼────────────┼───────────────────┤
│ gap1d_1_1           │ (None, 512)       │          0 │ conv1d_1_3[0][0]  │
│ (GlobalMaxPooling1… │                   │            │                   │
├─────────────────────┼───────────────────┼────────────┼───────────────────┤
│ gap1d_2_1           │ (None, 128)       │          0 │ conv1d_2_3[0][0]  │
│ (GlobalMaxPooling1… │                   │            │                   │
├─────────────────────┼───────────────────┼────────────┼───────────────────┤
│ gap1d_3_1           │ (None, 128)       │          0 │ conv1d_3_3[0][0]  │
│ (GlobalMaxPooling1… │                   │            │                   │
├─────────────────────┼───────────────────┼────────────┼───────────────────┤
│ concatenate_1       │ (None, 768)       │          0 │ gap1d_1_1[0][0],  │
│ (Concatenate)       │                   │            │ gap1d_2_1[0][0],  │
│                     │                   │            │ gap1d_3_1[0][0]   │
├─────────────────────┼───────────────────┼────────────┼───────────────────┤
│ dense_1 (Dense)     │ (None, 128)       │     98,432 │ concatenate_1[0]… │
├─────────────────────┼───────────────────┼────────────┼───────────────────┤
│ dense_2 (Dense)     │ (None, 16)        │      2,064 │ dense_1[0][0]     │
├─────────────────────┼───────────────────┼────────────┼───────────────────┤
│ output (Dense)      │ (None, 1)         │         17 │ dense_2[0][0]     │
└─────────────────────┴───────────────────┴────────────┴───────────────────┘
 Total params: 3,803,237 (14.51 MB)
 Trainable params: 1,267,745 (4.84 MB)
 Non-trainable params: 0 (0.00 B)
 Optimizer params: 2,535,492 (9.67 MB)

Model Configuration:
Optimizer: <keras.src.optimizers.adam.Adam object at 0x7f5e0c26ec50>
Loss Function: binary_crossentropy
Learning Rate: <KerasVariable shape=(), dtype=float32, path=adam/learning_rate>
…
