…
    z = MaxPooling1D(pool_size=2)(z)
    z = Flatten()(z)

    # Merging branches
    merged = concatenate([x, z])
    common_layer = Dense(64, activation='relu')(merged)
    output_layer = Dense(N_CLASS, activation='softmax')(common_layer)

    model = Model(inputs=[input_x, input_z], outputs=output_layer)
    return model

Model: "functional_7"
┏━━━━━━━━━━━━━━━━━━━━━┳━━━━━━━━━━━━━━━━━━━┳━━━━━━━━━━━━┳━━━━━━━━━━━━━━━━━━━┓
┃ Layer (type)        ┃ Output Shape      ┃    Param # ┃ Connected to      ┃
┡━━━━━━━━━━━━━━━━━━━━━╇━━━━━━━━━━━━━━━━━━━╇━━━━━━━━━━━━╇━━━━━━━━━━━━━━━━━━━┩
│ input_layer_4       │ (None, 1800, 1)   │          0 │ -                 │
│ (InputLayer)        │                   │            │                   │
├─────────────────────┼───────────────────┼────────────┼───────────────────┤
│ input_layer_5       │ (None, 1800, 1)   │          0 │ -                 │
│ (InputLayer)        │                   │            │                   │
├─────────────────────┼───────────────────┼────────────┼───────────────────┤
│ conv1d_12 (Conv1D)  │ (None, 446, 256)  │      5,376 │ input_layer_4[0]… │
├─────────────────────┼───────────────────┼────────────┼───────────────────┤
│ conv1d_16 (Conv1D)  │ (None, 446, 256)  │      5,376 │ input_layer_5[0]… │
├─────────────────────┼───────────────────┼────────────┼───────────────────┤
│ max_pooling1d_12    │ (None, 223, 256)  │          0 │ conv1d_12[0][0]   │
│ (MaxPooling1D)      │                   │            │                   │
├─────────────────────┼───────────────────┼────────────┼───────────────────┤
│ max_pooling1d_15    │ (None, 223, 256)  │          0 │ conv1d_16[0][0]   │
│ (MaxPooling1D)      │                   │            │                   │
├─────────────────────┼───────────────────┼────────────┼───────────────────┤
│ conv1d_13 (Conv1D)  │ (None, 52, 256)   │  1,048,832 │ max_pooling1d_12… │
├─────────────────────┼───────────────────┼────────────┼───────────────────┤
│ conv1d_17 (Conv1D)  │ (None, 52, 256)   │  1,048,832 │ max_pooling1d_15… │
├─────────────────────┼───────────────────┼────────────┼───────────────────┤
│ dropout_2 (Dropout) │ (None, 52, 256)   │          0 │ conv1d_13[0][0]   │
├─────────────────────┼───────────────────┼────────────┼───────────────────┤
│ dropout_3 (Dropout) │ (None, 52, 256)   │          0 │ conv1d_17[0][0]   │
├─────────────────────┼───────────────────┼────────────┼───────────────────┤
│ conv1d_14 (Conv1D)  │ (None, 45, 128)   │    262,272 │ dropout_2[0][0]   │
├─────────────────────┼───────────────────┼────────────┼───────────────────┤
│ conv1d_18 (Conv1D)  │ (None, 45, 128)   │    262,272 │ dropout_3[0][0]   │
├─────────────────────┼───────────────────┼────────────┼───────────────────┤
│ max_pooling1d_13    │ (None, 22, 128)   │          0 │ conv1d_14[0][0]   │
│ (MaxPooling1D)      │                   │            │                   │
├─────────────────────┼───────────────────┼────────────┼───────────────────┤
│ max_pooling1d_16    │ (None, 22, 128)   │          0 │ conv1d_18[0][0]   │
│ (MaxPooling1D)      │                   │            │                   │
├─────────────────────┼───────────────────┼────────────┼───────────────────┤
│ conv1d_15 (Conv1D)  │ (None, 19, 64)    │     32,832 │ max_pooling1d_13… │
├─────────────────────┼───────────────────┼────────────┼───────────────────┤
│ conv1d_19 (Conv1D)  │ (None, 19, 64)    │     32,832 │ max_pooling1d_16… │
├─────────────────────┼───────────────────┼────────────┼───────────────────┤
│ max_pooling1d_14    │ (None, 9, 64)     │          0 │ conv1d_15[0][0]   │
│ (MaxPooling1D)      │                   │            │                   │
├─────────────────────┼───────────────────┼────────────┼───────────────────┤
│ max_pooling1d_17    │ (None, 9, 64)     │          0 │ conv1d_19[0][0]   │
│ (MaxPooling1D)      │                   │            │                   │
├─────────────────────┼───────────────────┼────────────┼───────────────────┤
│ flatten_6 (Flatten) │ (None, 576)       │          0 │ max_pooling1d_14… │
├─────────────────────┼───────────────────┼────────────┼───────────────────┤
│ flatten_7 (Flatten) │ (None, 576)       │          0 │ max_pooling1d_17… │
├─────────────────────┼───────────────────┼────────────┼───────────────────┤
│ concatenate_3       │ (None, 1152)      │          0 │ flatten_6[0][0],  │
│ (Concatenate)       │                   │            │ flatten_7[0][0]   │
├─────────────────────┼───────────────────┼────────────┼───────────────────┤
│ dense_6 (Dense)     │ (None, 64)        │     73,792 │ concatenate_3[0]… │
├─────────────────────┼───────────────────┼────────────┼───────────────────┤
│ dense_7 (Dense)     │ (None, 3)         │        195 │ dense_6[0][0]     │
└─────────────────────┴───────────────────┴────────────┴───────────────────┘
 Total params: 8,317,835 (31.73 MB)
 Trainable params: 2,772,611 (10.58 MB)
 Non-trainable params: 0 (0.00 B)
 Optimizer params: 5,545,224 (21.15 MB)

Model Configuration:
Optimizer: <keras.src.optimizers.adam.Adam object at 0x7fa4741c3220>
Loss Function: sparse_categorical_crossentropy
Learning Rate: <KerasVariable shape=(), dtype=float32, path=adam/learning_rate>
…
