…
        globals()[f"{key}1"] = np.dstack((data[:, :, 6], data[:, :, 8]))
        globals()[f"{key}2"] = np.dstack((data[:, :, 1], data[:, :, 5]))
        globals()[f"{key}3"] = np.dstack((data[:, :, 2], data[:, :, 4]))
        # Uncomment and modify the line below if you need the fourth set
        # globals()[f"{key}4"] = np.dstack((data[:, :, 6], data[:, :, 8]))


Model: "functional_2"
┏━━━━━━━━━━━━━━━━━━━━━┳━━━━━━━━━━━━━━━━━━━┳━━━━━━━━━━━━┳━━━━━━━━━━━━━━━━━━━┓
┃ Layer (type)        ┃ Output Shape      ┃    Param # ┃ Connected to      ┃
┡━━━━━━━━━━━━━━━━━━━━━╇━━━━━━━━━━━━━━━━━━━╇━━━━━━━━━━━━╇━━━━━━━━━━━━━━━━━━━┩
│ input1 (InputLayer) │ (None, 1800, 2)   │          0 │ -                 │
├─────────────────────┼───────────────────┼────────────┼───────────────────┤
│ input2 (InputLayer) │ (None, 1800, 2)   │          0 │ -                 │
├─────────────────────┼───────────────────┼────────────┼───────────────────┤
│ input3 (InputLayer) │ (None, 1800, 2)   │          0 │ -                 │
├─────────────────────┼───────────────────┼────────────┼───────────────────┤
│ conv1d_1_1 (Conv1D) │ (None, 180, 128)  │     10,368 │ input1[0][0]      │
├─────────────────────┼───────────────────┼────────────┼───────────────────┤
│ conv1d_2_1 (Conv1D) │ (None, 180, 128)  │     10,368 │ input2[0][0]      │
├─────────────────────┼───────────────────┼────────────┼───────────────────┤
│ conv1d_3_1 (Conv1D) │ (None, 180, 128)  │     10,368 │ input3[0][0]      │
├─────────────────────┼───────────────────┼────────────┼───────────────────┤
│ maxpool1d_1_1       │ (None, 90, 128)   │          0 │ conv1d_1_1[0][0]  │
│ (MaxPooling1D)      │                   │            │                   │
├─────────────────────┼───────────────────┼────────────┼───────────────────┤
│ maxpool1d_2_1       │ (None, 90, 128)   │          0 │ conv1d_2_1[0][0]  │
│ (MaxPooling1D)      │                   │            │                   │
├─────────────────────┼───────────────────┼────────────┼───────────────────┤
│ maxpool1d_3_1       │ (None, 90, 128)   │          0 │ conv1d_3_1[0][0]  │
│ (MaxPooling1D)      │                   │            │                   │
├─────────────────────┼───────────────────┼────────────┼───────────────────┤
│ conv1d_1_2 (Conv1D) │ (None, 44, 256)   │    131,328 │ maxpool1d_1_1[0]… │
├─────────────────────┼───────────────────┼────────────┼───────────────────┤
│ conv1d_2_2 (Conv1D) │ (None, 44, 256)   │    131,328 │ maxpool1d_2_1[0]… │
├─────────────────────┼───────────────────┼────────────┼───────────────────┤
│ conv1d_3_2 (Conv1D) │ (None, 44, 256)   │    131,328 │ maxpool1d_3_1[0]… │
├─────────────────────┼───────────────────┼────────────┼───────────────────┤
│ conv1d_1_3 (Conv1D) │ (None, 43, 512)   │    262,656 │ conv1d_1_2[0][0]  │
├─────────────────────┼───────────────────┼────────────┼───────────────────┤
│ conv1d_2_3 (Conv1D) │ (None, 43, 512)   │    262,656 │ conv1d_2_2[0][0]  │
├─────────────────────┼───────────────────┼────────────┼───────────────────┤
│ conv1d_3_3 (Conv1D) │ (None, 43, 512)   │    262,656 │ conv1d_3_2[0][0]  │
├─────────────────────┼───────────────────┼────────────┼───────────────────┤
│ gap1d_1_1           │ (None, 512)       │          0 │ conv1d_1_3[0][0]  │
│ (GlobalMaxPooling1… │                   │            │                   │
├─────────────────────┼───────────────────┼────────────┼───────────────────┤
│ gap1d_2_1           │ (None, 512)       │          0 │ conv1d_2_3[0][0]  │
│ (GlobalMaxPooling1… │                   │            │                   │
├─────────────────────┼───────────────────┼────────────┼───────────────────┤
│ gap1d_3_1           │ (None, 512)       │          0 │ conv1d_3_3[0][0]  │
│ (GlobalMaxPooling1… │                   │            │                   │
├─────────────────────┼───────────────────┼────────────┼───────────────────┤
│ concatenate_1       │ (None, 1536)      │          0 │ gap1d_1_1[0][0],  │
│ (Concatenate)       │                   │            │ gap1d_2_1[0][0],  │
│                     │                   │            │ gap1d_3_1[0][0]   │
├─────────────────────┼───────────────────┼────────────┼───────────────────┤
│ dense_1 (Dense)     │ (None, 64)        │     98,368 │ concatenate_1[0]… │
├─────────────────────┼───────────────────┼────────────┼───────────────────┤
│ output (Dense)      │ (None, 4)         │        260 │ dense_1[0][0]     │
└─────────────────────┴───────────────────┴────────────┴───────────────────┘
 Total params: 3,935,054 (15.01 MB)
 Trainable params: 1,311,684 (5.00 MB)
 Non-trainable params: 0 (0.00 B)
 Optimizer params: 2,623,370 (10.01 MB)

Model Configuration:
Optimizer: <keras.src.optimizers.adam.Adam object at 0x7f1d946276a0>
Loss Function: sparse_categorical_crossentropy
Learning Rate: <KerasVariable shape=(), dtype=float32, path=adam/learning_rate>
…
