…
def assign_and_deploy_variables(data_dict):
    for key, data in data_dict.items():
        globals()[f"{key}1"] = np.dstack((data[:,:,2], data[:,:,4]))
        globals()[f"{key}2"] = np.dstack((data[:,:,0], data[:,:,2]))
        globals()[f"{key}3"] = data[:,:,5]
        globals()[f"{key}4"] = np.dstack((data[:,:,1], data[:,:,3]))


Model: "functional_5"
┏━━━━━━━━━━━━━━━━━━━━━┳━━━━━━━━━━━━━━━━━━━┳━━━━━━━━━━━━┳━━━━━━━━━━━━━━━━━━━┓
┃ Layer (type)        ┃ Output Shape      ┃    Param # ┃ Connected to      ┃
┡━━━━━━━━━━━━━━━━━━━━━╇━━━━━━━━━━━━━━━━━━━╇━━━━━━━━━━━━╇━━━━━━━━━━━━━━━━━━━┩
│ input1 (InputLayer) │ (None, 2000, 2)   │          0 │ -                 │
├─────────────────────┼───────────────────┼────────────┼───────────────────┤
│ input2 (InputLayer) │ (None, 2000, 2)   │          0 │ -                 │
├─────────────────────┼───────────────────┼────────────┼───────────────────┤
│ input3 (InputLayer) │ (None, 2000, 1)   │          0 │ -                 │
├─────────────────────┼───────────────────┼────────────┼───────────────────┤
│ input4 (InputLayer) │ (None, 2000, 2)   │          0 │ -                 │
├─────────────────────┼───────────────────┼────────────┼───────────────────┤
│ conv1d_1_1 (Conv1D) │ (None, 20, 128)   │    102,528 │ input1[0][0]      │
├─────────────────────┼───────────────────┼────────────┼───────────────────┤
│ conv1d_2_1 (Conv1D) │ (None, 20, 128)   │    102,528 │ input2[0][0]      │
├─────────────────────┼───────────────────┼────────────┼───────────────────┤
│ conv1d_3_1 (Conv1D) │ (None, 20, 128)   │     51,328 │ input3[0][0]      │
├─────────────────────┼───────────────────┼────────────┼───────────────────┤
│ conv1d_4_1 (Conv1D) │ (None, 20, 128)   │    102,528 │ input4[0][0]      │
├─────────────────────┼───────────────────┼────────────┼───────────────────┤
│ conv1d_1_2 (Conv1D) │ (None, 3, 128)    │    262,272 │ conv1d_1_1[0][0]  │
├─────────────────────┼───────────────────┼────────────┼───────────────────┤
│ conv1d_2_2 (Conv1D) │ (None, 3, 128)    │    262,272 │ conv1d_2_1[0][0]  │
├─────────────────────┼───────────────────┼────────────┼───────────────────┤
│ conv1d_3_2 (Conv1D) │ (None, 3, 128)    │    262,272 │ conv1d_3_1[0][0]  │
├─────────────────────┼───────────────────┼────────────┼───────────────────┤
│ conv1d_4_2 (Conv1D) │ (None, 3, 128)    │    262,272 │ conv1d_4_1[0][0]  │
├─────────────────────┼───────────────────┼────────────┼───────────────────┤
│ dropout_1_1         │ (None, 3, 128)    │          0 │ conv1d_1_2[0][0]  │
│ (Dropout)           │                   │            │                   │
├─────────────────────┼───────────────────┼────────────┼───────────────────┤
│ dropout_2_1         │ (None, 3, 128)    │          0 │ conv1d_2_2[0][0]  │
│ (Dropout)           │                   │            │                   │
├─────────────────────┼───────────────────┼────────────┼───────────────────┤
│ dropout_3_1         │ (None, 3, 128)    │          0 │ conv1d_3_2[0][0]  │
│ (Dropout)           │                   │            │                   │
├─────────────────────┼───────────────────┼────────────┼───────────────────┤
│ dropout_4_1         │ (None, 3, 128)    │          0 │ conv1d_4_2[0][0]  │
│ (Dropout)           │                   │            │                   │
├─────────────────────┼───────────────────┼────────────┼───────────────────┤
│ conv1d_1_4 (Conv1D) │ (None, 2, 256)    │     65,792 │ dropout_1_1[0][0] │
├─────────────────────┼───────────────────┼────────────┼───────────────────┤
│ conv1d_2_4 (Conv1D) │ (None, 2, 256)    │     65,792 │ dropout_2_1[0][0] │
├─────────────────────┼───────────────────┼────────────┼───────────────────┤
│ conv1d_3_4 (Conv1D) │ (None, 2, 256)    │     65,792 │ dropout_3_1[0][0] │
├─────────────────────┼───────────────────┼────────────┼───────────────────┤
│ conv1d_4_4 (Conv1D) │ (None, 2, 256)    │     65,792 │ dropout_4_1[0][0] │
├─────────────────────┼───────────────────┼────────────┼───────────────────┤
│ gap1d_1_1           │ (None, 256)       │          0 │ conv1d_1_4[0][0]  │
│ (GlobalMaxPooling1… │                   │            │                   │
├─────────────────────┼───────────────────┼────────────┼───────────────────┤
│ gap1d_2_1           │ (None, 256)       │          0 │ conv1d_2_4[0][0]  │
│ (GlobalMaxPooling1… │                   │            │                   │
├─────────────────────┼───────────────────┼────────────┼───────────────────┤
│ gap1d_3_1           │ (None, 256)       │          0 │ conv1d_3_4[0][0]  │
│ (GlobalMaxPooling1… │                   │            │                   │
├─────────────────────┼───────────────────┼────────────┼───────────────────┤
│ gap1d_4_1           │ (None, 256)       │          0 │ conv1d_4_4[0][0]  │
│ (GlobalMaxPooling1… │                   │            │                   │
├─────────────────────┼───────────────────┼────────────┼───────────────────┤
│ concatenate_1       │ (None, 1024)      │          0 │ gap1d_1_1[0][0],  │
│ (Concatenate)       │                   │            │ gap1d_2_1[0][0],  │
│                     │                   │            │ gap1d_3_1[0][0],  │
│                     │                   │            │ gap1d_4_1[0][0]   │
├─────────────────────┼───────────────────┼────────────┼───────────────────┤
│ dense_1 (Dense)     │ (None, 128)       │    131,200 │ concatenate_1[0]… │
├─────────────────────┼───────────────────┼────────────┼───────────────────┤
│ output (Dense)      │ (None, 6)         │        774 │ dense_1[0][0]     │
└─────────────────────┴───────────────────┴────────────┴───────────────────┘
 Total params: 5,409,428 (20.64 MB)
 Trainable params: 1,803,142 (6.88 MB)
 Non-trainable params: 0 (0.00 B)
 Optimizer params: 3,606,286 (13.76 MB)

Model Configuration:
Optimizer: <keras.src.optimizers.adam.Adam object at 0x7f0e385481f0>
Loss Function: sparse_categorical_crossentropy
Learning Rate: <KerasVariable shape=(), dtype=float32, path=adam/learning_rate>
…
