…
    z = MaxPooling1D(pool_size=2)(z)
    z = Flatten()(z)

    # Merging branches
    merged = concatenate([x, z])
    common_layer = Dense(64, activation='relu')(merged)
    output_layer = Dense(N_CLASS, activation='softmax')(common_layer)

    model = Model(inputs=[input_x, input_z], outputs=output_layer)
    return model

Model: "functional_17"
┏━━━━━━━━━━━━━━━━━━━━━┳━━━━━━━━━━━━━━━━━━━┳━━━━━━━━━━━━┳━━━━━━━━━━━━━━━━━━━┓
┃ Layer (type)        ┃ Output Shape      ┃    Param # ┃ Connected to      ┃
┡━━━━━━━━━━━━━━━━━━━━━╇━━━━━━━━━━━━━━━━━━━╇━━━━━━━━━━━━╇━━━━━━━━━━━━━━━━━━━┩
│ input_layer_14      │ (None, 1800, 1)   │          0 │ -                 │
│ (InputLayer)        │                   │            │                   │
├─────────────────────┼───────────────────┼────────────┼───────────────────┤
│ input_layer_15      │ (None, 1800, 1)   │          0 │ -                 │
│ (InputLayer)        │                   │            │                   │
├─────────────────────┼───────────────────┼────────────┼───────────────────┤
│ conv1d_52 (Conv1D)  │ (None, 446, 256)  │      5,376 │ input_layer_14[0… │
├─────────────────────┼───────────────────┼────────────┼───────────────────┤
│ conv1d_56 (Conv1D)  │ (None, 446, 256)  │      5,376 │ input_layer_15[0… │
├─────────────────────┼───────────────────┼────────────┼───────────────────┤
│ max_pooling1d_42    │ (None, 223, 256)  │          0 │ conv1d_52[0][0]   │
│ (MaxPooling1D)      │                   │            │                   │
├─────────────────────┼───────────────────┼────────────┼───────────────────┤
│ max_pooling1d_45    │ (None, 223, 256)  │          0 │ conv1d_56[0][0]   │
│ (MaxPooling1D)      │                   │            │                   │
├─────────────────────┼───────────────────┼────────────┼───────────────────┤
│ conv1d_53 (Conv1D)  │ (None, 52, 256)   │  1,048,832 │ max_pooling1d_42… │
├─────────────────────┼───────────────────┼────────────┼───────────────────┤
│ conv1d_57 (Conv1D)  │ (None, 52, 256)   │  1,048,832 │ max_pooling1d_45… │
├─────────────────────┼───────────────────┼────────────┼───────────────────┤
│ dropout_12          │ (None, 52, 256)   │          0 │ conv1d_53[0][0]   │
│ (Dropout)           │                   │            │                   │
├─────────────────────┼───────────────────┼────────────┼───────────────────┤
│ dropout_13          │ (None, 52, 256)   │          0 │ conv1d_57[0][0]   │
│ (Dropout)           │                   │            │                   │
├─────────────────────┼───────────────────┼────────────┼───────────────────┤
│ conv1d_54 (Conv1D)  │ (None, 45, 128)   │    262,272 │ dropout_12[0][0]  │
├─────────────────────┼───────────────────┼────────────┼───────────────────┤
│ conv1d_58 (Conv1D)  │ (None, 45, 128)   │    262,272 │ dropout_13[0][0]  │
├─────────────────────┼───────────────────┼────────────┼───────────────────┤
│ max_pooling1d_43    │ (None, 22, 128)   │          0 │ conv1d_54[0][0]   │
│ (MaxPooling1D)      │                   │            │                   │
├─────────────────────┼───────────────────┼────────────┼───────────────────┤
│ max_pooling1d_46    │ (None, 22, 128)   │          0 │ conv1d_58[0][0]   │
│ (MaxPooling1D)      │                   │            │                   │
├─────────────────────┼───────────────────┼────────────┼───────────────────┤
│ conv1d_55 (Conv1D)  │ (None, 19, 64)    │     32,832 │ max_pooling1d_43… │
├─────────────────────┼───────────────────┼────────────┼───────────────────┤
│ conv1d_59 (Conv1D)  │ (None, 19, 64)    │     32,832 │ max_pooling1d_46… │
├─────────────────────┼───────────────────┼────────────┼───────────────────┤
│ max_pooling1d_44    │ (None, 9, 64)     │          0 │ conv1d_55[0][0]   │
│ (MaxPooling1D)      │                   │            │                   │
├─────────────────────┼───────────────────┼────────────┼───────────────────┤
│ max_pooling1d_47    │ (None, 9, 64)     │          0 │ conv1d_59[0][0]   │
│ (MaxPooling1D)      │                   │            │                   │
├─────────────────────┼───────────────────┼────────────┼───────────────────┤
│ flatten_16          │ (None, 576)       │          0 │ max_pooling1d_44… │
│ (Flatten)           │                   │            │                   │
├─────────────────────┼───────────────────┼────────────┼───────────────────┤
│ flatten_17          │ (None, 576)       │          0 │ max_pooling1d_47… │
│ (Flatten)           │                   │            │                   │
├─────────────────────┼───────────────────┼────────────┼───────────────────┤
│ concatenate_8       │ (None, 1152)      │          0 │ flatten_16[0][0], │
│ (Concatenate)       │                   │            │ flatten_17[0][0]  │
├─────────────────────┼───────────────────┼────────────┼───────────────────┤
│ dense_16 (Dense)    │ (None, 64)        │     73,792 │ concatenate_8[0]… │
├─────────────────────┼───────────────────┼────────────┼───────────────────┤
│ dense_17 (Dense)    │ (None, 3)         │        195 │ dense_16[0][0]    │
└─────────────────────┴───────────────────┴────────────┴───────────────────┘
 Total params: 8,317,835 (31.73 MB)
 Trainable params: 2,772,611 (10.58 MB)
 Non-trainable params: 0 (0.00 B)
 Optimizer params: 5,545,224 (21.15 MB)

Model Configuration:
Optimizer: <keras.src.optimizers.adam.Adam object at 0x7fa474429a80>
Loss Function: sparse_categorical_crossentropy
Learning Rate: <KerasVariable shape=(), dtype=float32, path=adam/learning_rate>
…
