…
    merged = concatenate([x1, x2, x3], name='concatenate_1')
    
    # Dense layer
    dense = Dense(64, activation='relu', name='dense_1')(merged)
    
    # Output layer for 6-class classification
    output = Dense(6, activation='softmax', name='output')(dense)
    
    model = Model(inputs=[input1, input2, input3], outputs=output)
    return model

Model: "functional_3"
┏━━━━━━━━━━━━━━━━━━━━━┳━━━━━━━━━━━━━━━━━━━┳━━━━━━━━━━━━┳━━━━━━━━━━━━━━━━━━━┓
┃ Layer (type)        ┃ Output Shape      ┃    Param # ┃ Connected to      ┃
┡━━━━━━━━━━━━━━━━━━━━━╇━━━━━━━━━━━━━━━━━━━╇━━━━━━━━━━━━╇━━━━━━━━━━━━━━━━━━━┩
│ input1 (InputLayer) │ (None, 2000, 3)   │          0 │ -                 │
├─────────────────────┼───────────────────┼────────────┼───────────────────┤
│ input2 (InputLayer) │ (None, 2000, 1)   │          0 │ -                 │
├─────────────────────┼───────────────────┼────────────┼───────────────────┤
│ input3 (InputLayer) │ (None, 2000, 2)   │          0 │ -                 │
├─────────────────────┼───────────────────┼────────────┼───────────────────┤
│ conv1d_1_1 (Conv1D) │ (None, 197, 64)   │      7,744 │ input1[0][0]      │
├─────────────────────┼───────────────────┼────────────┼───────────────────┤
│ conv1d_2_1 (Conv1D) │ (None, 248, 64)   │      1,344 │ input2[0][0]      │
├─────────────────────┼───────────────────┼────────────┼───────────────────┤
│ conv1d_3_1 (Conv1D) │ (None, 197, 64)   │      5,184 │ input3[0][0]      │
├─────────────────────┼───────────────────┼────────────┼───────────────────┤
│ maxpool1d_1_1       │ (None, 98, 64)    │          0 │ conv1d_1_1[0][0]  │
│ (MaxPooling1D)      │                   │            │                   │
├─────────────────────┼───────────────────┼────────────┼───────────────────┤
│ maxpool1d_2_1       │ (None, 124, 64)   │          0 │ conv1d_2_1[0][0]  │
│ (MaxPooling1D)      │                   │            │                   │
├─────────────────────┼───────────────────┼────────────┼───────────────────┤
│ maxpool1d_3_1       │ (None, 98, 64)    │          0 │ conv1d_3_1[0][0]  │
│ (MaxPooling1D)      │                   │            │                   │
├─────────────────────┼───────────────────┼────────────┼───────────────────┤
│ conv1d_1_2 (Conv1D) │ (None, 46, 128)   │     65,664 │ maxpool1d_1_1[0]… │
├─────────────────────┼───────────────────┼────────────┼───────────────────┤
│ conv1d_2_2 (Conv1D) │ (None, 59, 128)   │     65,664 │ maxpool1d_2_1[0]… │
├─────────────────────┼───────────────────┼────────────┼───────────────────┤
│ conv1d_3_2 (Conv1D) │ (None, 45, 128)   │     82,048 │ maxpool1d_3_1[0]… │
├─────────────────────┼───────────────────┼────────────┼───────────────────┤
│ dropout_1_1         │ (None, 46, 128)   │          0 │ conv1d_1_2[0][0]  │
│ (Dropout)           │                   │            │                   │
├─────────────────────┼───────────────────┼────────────┼───────────────────┤
│ dropout_2_1         │ (None, 59, 128)   │          0 │ conv1d_2_2[0][0]  │
│ (Dropout)           │                   │            │                   │
├─────────────────────┼───────────────────┼────────────┼───────────────────┤
│ dropout_3_1         │ (None, 45, 128)   │          0 │ conv1d_3_2[0][0]  │
│ (Dropout)           │                   │            │                   │
├─────────────────────┼───────────────────┼────────────┼───────────────────┤
│ conv1d_1_3 (Conv1D) │ (None, 22, 256)   │    131,328 │ dropout_1_1[0][0] │
├─────────────────────┼───────────────────┼────────────┼───────────────────┤
│ conv1d_2_3 (Conv1D) │ (None, 29, 256)   │     65,792 │ dropout_2_1[0][0] │
├─────────────────────┼───────────────────┼────────────┼───────────────────┤
│ conv1d_3_3 (Conv1D) │ (None, 21, 256)   │    131,328 │ dropout_3_1[0][0] │
├─────────────────────┼───────────────────┼────────────┼───────────────────┤
│ gap1d_1_1           │ (None, 256)       │          0 │ conv1d_1_3[0][0]  │
│ (GlobalAveragePool… │                   │            │                   │
├─────────────────────┼───────────────────┼────────────┼───────────────────┤
│ gap1d_2_1           │ (None, 256)       │          0 │ conv1d_2_3[0][0]  │
│ (GlobalAveragePool… │                   │            │                   │
├─────────────────────┼───────────────────┼────────────┼───────────────────┤
│ gap1d_3_1           │ (None, 256)       │          0 │ conv1d_3_3[0][0]  │
│ (GlobalAveragePool… │                   │            │                   │
├─────────────────────┼───────────────────┼────────────┼───────────────────┤
│ concatenate_1       │ (None, 768)       │          0 │ gap1d_1_1[0][0],  │
│ (Concatenate)       │                   │            │ gap1d_2_1[0][0],  │
│                     │                   │            │ gap1d_3_1[0][0]   │
├─────────────────────┼───────────────────┼────────────┼───────────────────┤
│ dense_1 (Dense)     │ (None, 64)        │     49,216 │ concatenate_1[0]… │
├─────────────────────┼───────────────────┼────────────┼───────────────────┤
│ output (Dense)      │ (None, 6)         │        390 │ dense_1[0][0]     │
└─────────────────────┴───────────────────┴────────────┴───────────────────┘
 Total params: 1,817,108 (6.93 MB)
 Trainable params: 605,702 (2.31 MB)
 Non-trainable params: 0 (0.00 B)
 Optimizer params: 1,211,406 (4.62 MB)

Model Configuration:
Optimizer: <keras.src.optimizers.adam.Adam object at 0x7846ee98e800>
Loss Function: sparse_categorical_crossentropy
Learning Rate: <KerasVariable shape=(), dtype=float32, path=adam/learning_rate>
…
