…
Assign and Deploy Variables Function:
def assign_and_deploy_variables(data_dict):
    for key, data in data_dict.items():
        globals()[f"{key}1"] = data[:, :, 2]
        globals()[f"{key}2"] = data[:, :, 1]
        globals()[f"{key}3"] = np.dstack((data[:, :, 2], data[:, :, 3]))
        globals()[f"{key}4"] = np.dstack((data[:, :, 6], data[:, :, 8]))


Model: "functional_1"
┏━━━━━━━━━━━━━━━━━━━━━┳━━━━━━━━━━━━━━━━━━━┳━━━━━━━━━━━━┳━━━━━━━━━━━━━━━━━━━┓
┃ Layer (type)        ┃ Output Shape      ┃    Param # ┃ Connected to      ┃
┡━━━━━━━━━━━━━━━━━━━━━╇━━━━━━━━━━━━━━━━━━━╇━━━━━━━━━━━━╇━━━━━━━━━━━━━━━━━━━┩
│ input1 (InputLayer) │ (None, 3000, 1)   │          0 │ -                 │
├─────────────────────┼───────────────────┼────────────┼───────────────────┤
│ input2 (InputLayer) │ (None, 3000, 1)   │          0 │ -                 │
├─────────────────────┼───────────────────┼────────────┼───────────────────┤
│ input3 (InputLayer) │ (None, 3000, 2)   │          0 │ -                 │
├─────────────────────┼───────────────────┼────────────┼───────────────────┤
│ input4 (InputLayer) │ (None, 3000, 2)   │          0 │ -                 │
├─────────────────────┼───────────────────┼────────────┼───────────────────┤
│ conv1d_1_1 (Conv1D) │ (None, 300, 128)  │      5,248 │ input1[0][0]      │
├─────────────────────┼───────────────────┼────────────┼───────────────────┤
│ conv1d_2_1 (Conv1D) │ (None, 300, 128)  │      5,248 │ input2[0][0]      │
├─────────────────────┼───────────────────┼────────────┼───────────────────┤
│ conv1d_3_1 (Conv1D) │ (None, 300, 128)  │     10,368 │ input3[0][0]      │
├─────────────────────┼───────────────────┼────────────┼───────────────────┤
│ conv1d_4_1 (Conv1D) │ (None, 300, 128)  │     10,368 │ input4[0][0]      │
├─────────────────────┼───────────────────┼────────────┼───────────────────┤
│ conv1d_1_2 (Conv1D) │ (None, 149, 256)  │    131,328 │ conv1d_1_1[0][0]  │
├─────────────────────┼───────────────────┼────────────┼───────────────────┤
│ conv1d_2_2 (Conv1D) │ (None, 149, 256)  │    131,328 │ conv1d_2_1[0][0]  │
├─────────────────────┼───────────────────┼────────────┼───────────────────┤
│ conv1d_3_2 (Conv1D) │ (None, 149, 256)  │    131,328 │ conv1d_3_1[0][0]  │
├─────────────────────┼───────────────────┼────────────┼───────────────────┤
│ conv1d_4_2 (Conv1D) │ (None, 149, 256)  │    131,328 │ conv1d_4_1[0][0]  │
├─────────────────────┼───────────────────┼────────────┼───────────────────┤
│ gap1d_1_1           │ (None, 256)       │          0 │ conv1d_1_2[0][0]  │
│ (GlobalMaxPooling1… │                   │            │                   │
├─────────────────────┼───────────────────┼────────────┼───────────────────┤
│ gap1d_2_1           │ (None, 256)       │          0 │ conv1d_2_2[0][0]  │
│ (GlobalMaxPooling1… │                   │            │                   │
├─────────────────────┼───────────────────┼────────────┼───────────────────┤
│ gap1d_3_1           │ (None, 256)       │          0 │ conv1d_3_2[0][0]  │
│ (GlobalMaxPooling1… │                   │            │                   │
├─────────────────────┼───────────────────┼────────────┼───────────────────┤
│ gap1d_4_1           │ (None, 256)       │          0 │ conv1d_4_2[0][0]  │
│ (GlobalMaxPooling1… │                   │            │                   │
├─────────────────────┼───────────────────┼────────────┼───────────────────┤
│ flatten_4 (Flatten) │ (None, 256)       │          0 │ gap1d_1_1[0][0]   │
├─────────────────────┼───────────────────┼────────────┼───────────────────┤
│ flatten_5 (Flatten) │ (None, 256)       │          0 │ gap1d_2_1[0][0]   │
├─────────────────────┼───────────────────┼────────────┼───────────────────┤
│ flatten_6 (Flatten) │ (None, 256)       │          0 │ gap1d_3_1[0][0]   │
├─────────────────────┼───────────────────┼────────────┼───────────────────┤
│ flatten_7 (Flatten) │ (None, 256)       │          0 │ gap1d_4_1[0][0]   │
├─────────────────────┼───────────────────┼────────────┼───────────────────┤
│ concatenate_1       │ (None, 1024)      │          0 │ flatten_4[0][0],  │
│ (Concatenate)       │                   │            │ flatten_5[0][0],  │
│                     │                   │            │ flatten_6[0][0],  │
│                     │                   │            │ flatten_7[0][0]   │
├─────────────────────┼───────────────────┼────────────┼───────────────────┤
│ dense_1 (Dense)     │ (None, 64)        │     65,600 │ concatenate_1[0]… │
├─────────────────────┼───────────────────┼────────────┼───────────────────┤
│ output (Dense)      │ (None, 4)         │        260 │ dense_1[0][0]     │
└─────────────────────┴───────────────────┴────────────┴───────────────────┘
 Total params: 1,867,214 (7.12 MB)
 Trainable params: 622,404 (2.37 MB)
 Non-trainable params: 0 (0.00 B)
 Optimizer params: 1,244,810 (4.75 MB)

Model Configuration:
Optimizer: <keras.src.optimizers.adam.Adam object at 0x7f094dbf34f0>
Loss Function: sparse_categorical_crossentropy
Learning Rate: <KerasVariable shape=(), dtype=float32, path=adam/learning_rate>
…
